mnist_net.pth (torch, 184329 bytes, 10 tensors)

conv1.weight f4 [8, 1, 5, 5]
00000000: fcea 5dbe 47d1 85be bc14 f0be a663 2abe
00000010: 4429 02be 0c68 9abe cfda c9be 2692 62be
00000020: 65c4 33be 7ed2 8e3e 3d7f bcbe ea20 a2be
00000030: 20c0 d3bd 8412 883e a57f d43e 6e8e e0bc
00000040: 8d9d 953d 9fb6 a23e fd09 3c3e e0b3 b63e
00000050: c050 b23e 2d3d 713e 446c 033f 658b b63e
00000060: b86f 653e fe1e 2bbd 06f9 5bbd 8261 15bd
00000070: cf4c 26be b3b2 b4be 25cf 94be c209 94bd
00000080: d50d b4be ae23 b9be c332 47bd cb39 b3be
00000090: 5783 87be 339b abbe c521 51bd 3e30 9ebe
000000a0: 3d7d abbe 60bc 7fbe a59c 58be 9402 47be
000000b0: 6603 7c3b 1390 e83d e386 71be c0fd d53d
000000c0: 525f d93d e4d6 84bd 0292 10be ee5b d53d
000000d0: ca1f 6dbd 7f82 773e 4330 953c cb37 033e
000000e0: a47d 953d 44b1 09be 1489 98bc 6925 8c3e
000000f0: 8196 59be baca e93d caa8 1d3e fe15 633c
00000100: ac4e 8c3e 8cb7 e13d 1dfc 1d3d acef adbd
00000110: 83eb 72bd 980f 18be 0c97 9bbe 90dc a5bd
00000120: 263b 8bbe 3488 323b 6035 1f3e 352e 393c
00000130: 6244 893e 6dd1 593d a987 0cbe 7391 193e
00000140: 6d26 a23d 16c4 913e b8a4 883e b330 f03d
00000150: 7be0 58be dce0 d73d 8e84 f83d d648 a33d
00000160: 9de4 d8bd 9947 ae3d 92ce 003e 6d10 5e3e
00000170: 029b 793e 6ae9 403e 922f a83b 8f8d d93d
00000180: 352a 743e b137 033e 1117 c43d e172 5b3e
00000190: d1f0 3cbe ba4b 1c3e 4cf9 383e 8f09 44bb
000001a0: e56d c8bd 4569 3c3e 647e 443d 7f15 abbd
000001b0: 0454 33be 899c 3dbd 627f 923e 60e5 833e
000001c0: beec 803d 64f2 593e 8bdd 6a3d 3a8b f8bd
000001d0: 00f8 943d 666b 833d 18b2 063e 09ff 58be
000001e0: 41b2 7fbe 3359 003d 7ae1 23be e497 04be
000001f0: e51b 7cbe f787 fdbd 319d a4be 471c a0be
00000200: cf7d 28be 86b9 353d 2d89 88be efb7 45bc
00000210: 9a64 24be fcb4 75be e117 dfbd 0d68 9cbe
00000220: 9ad7 5bbd dc9b a5be d7c5 d93c 3a65 f63d
00000230: d400 8dbe 388f 9dbe 78e3 8dbd 3926 57be
00000240: 323e 073e 53fa 7abd 4d2c 573c e40a 26be
00000250: 6cba efbd c126 0c3e 4905 823d a3af 003e
00000260: 8ac5 02be 9cbf 283e 936b 6e3e 74e2 853e
00000270: 7cda 69bc 3f9d 0b3d 7d11 543e e546 b83e
00000280: f2fa e3bc 39e4 08be 7e95 7b3e e26e 523e
00000290: de41 17be 35ae 98bc de81 08be 020a 86be
000002a0: 4240 e0bc a6ca b6bd 2ba2 7fbe 5b52 70be
000002b0: 2c37 4cbe 31a5 0d3b a9a1 32be da8e 27be
000002c0: 1266 3a3c cac8 3e3d f777 7a3e 7875 ad3c
000002d0: a480 afbe 0c14 a5be e3ee c6bd a673 b43d
000002e0: 0b50 f83e eda9 8ebe d255 acbe e85b 81bd
000002f0: 73a2 983e f132 093f b65b ccbe c11c a6be
00000300: 6534 6abe a942 d53e b45b 8f3e c33d 85be
00000310: 3aec eabd fb34 243d aae6 c93e feb1 b43e
-0.2167167 -0.26136228 -0.4689082 -0.16639575 -0.12711054 -0.30157506 -0.3942475 -0.22126064
-0.17555387 0.27894968 -0.36815825 -0.31665736 -0.10339379 0.26576626 0.41503635 -0.027411666
0.07305441 0.31779954 0.18363185 0.3568411 0.34827232 0.23558493 0.51337075 0.35653225
0.22405899 -0.041777603 -0.053704284 -0.036469944 -0.16240238 -0.35292587 -0.2906429 -0.07228424
-0.35166803 -0.36160034 -0.048632395 -0.3500503 -0.26467392 -0.33516845 -0.051057596 -0.3089618
-0.33493987 -0.24974203 -0.21153505 -0.19434577 0.0038454174 0.11355605 -0.23586611 0.104487896
0.10613884 -0.064863 -0.14118198 0.10417925 -0.057891645 0.24170874 0.01821149 0.12814252
0.07299355 -0.13446528 -0.018620051 0.27372292 -0.21248819 0.1141562 0.15396419 0.013860224
0.27403772 0.11021337 0.038570512 -0.084929794 -0.059306633 -0.14849699 -0.30388677 -0.080987096
-0.27193564 0.0027241828 0.15547705 0.0113025205 0.26809984 0.05317824 -0.13723625 0.1499689
0.079174854 0.28469914 0.2668817 0.11728039 -0.21179383 0.105409354 0.12134658 0.07972877
-0.105904795 0.0850975 0.125788 0.21685953 0.24375537 0.1883904 0.005132624 0.10622703
0.23844226 0.12814213 0.09574712 0.21430542 -0.18451239 0.15263262 0.18063849 -0.0029912924
-0.09786586 0.18399532 0.047972098 -0.083537094 -0.17512518 -0.04629186 0.2861281 0.25760937
0.06295155 0.21283871 0.057340186 -0.1213593 0.07273865 0.06416969 0.13153875 -0.21191038
-0.24970342 0.031335067 -0.16003981 -0.12948567 -0.24620016 -0.12379449 -0.32151178 -0.31271574
-0.16454242 0.044366382 -0.26667157 -0.012067779 -0.16054001 -0.23994821 -0.108932264 -0.30548134
-0.05367241 -0.32345474 0.026583595 0.12031026 -0.27539694 -0.3077333 -0.06928152 -0.21010675
0.1320732 -0.061273884 0.013133121 -0.16215092 -0.11705479 0.13686658 0.06348664 0.12567
-0.12770668 0.16479343 0.23283224 0.26149333 -0.014273282 0.03408551 0.20709796 0.35991588
-0.027829621 -0.1336831 0.24568745 0.20550111 -0.1477122 -0.018637756 -0.1333079 -0.2617951
-0.02737439 -0.08925371 -0.24964206 -0.23468916 -0.19942921 0.0021613354 -0.17444481 -0.16363087
0.0113768745 0.046578206 0.24459825 0.021174178 -0.34277833 -0.32241857 -0.09713533 0.08811121
0.48498568 -0.27864018 -0.33659226 -0.06316358 0.2981144 0.53593355 -0.3991372 -0.32443812
-0.2287155 0.4165242 0.2799965 -0.26023683 -0.11470838 0.04008959 0.39433795 0.35292047

conv1.bias f4 [8]
00000000: 1234 da3e e5a1 dbbd 7849 363e 2e81 64bd
00000010: 9c26 103d 5359 5abd a11f 793d 1d12 893e
0.42617851 -0.10724238 0.17801464 -0.055787258 0.03519307 -0.053307842 0.06082118 0.26771632

conv2.weight f4 [16, 8, 5, 5]
00000000: 2065 50bd 9901 d9bc 4888 033e ebc0 c03d
00000010: ae7b f13c 690c aabb 313c 1c3e 77df 513d
00000020: 4f8a 563c c365 a2bd 758d 8ebd 1b03 ac3c
00000030: b863 32bd 47f3 043d a5cf 3bbc fa8e a2bd
00000040: 766e 31bd dea4 213d 3de7 083e 2fbf 263d
00000050: 136e 623d c028 1abd 9fe2 08bd 5ab0 4abc
00000060: 9567 2d3d eeb1 063d a2d0 c9bc 1cab 203d
00000070: 8e7e dcbd 35f9 9c3c 23fe 3f3c ea5e 043d
00000080: cf5b 7dbd 815c 87bd f3f6 723b 950b 6fbd
00000090: 6dcc b73c e50e 013c 1e17 d73c 4c8a d53d
000000a0: bd4d a73d a53d 903d b87a 99bc 560c ae3d
000000b0: 7a94 4bbb 12a9 f73c 6daf 80bb fe89 3fbd
000000c0: 9312 8bbd 27c2 56bd 2e1a 0cbd 5a26 843a
000000d0: 240e 613c e964 853d 3da9 2abd 465a 953c
000000e0: 00fb 19bd 3511 643d 34d3 dfbc 1139 9e3d
000000f0: 9e47 8d3b 8020 5b3d 0ea8 00bc aac0 623d
00000100: d554 8f3a 8a9e 97ba 2274 3e3c b5aa a93c
00000110: 351b 7abd 255c 56bd 2a21 d23c 6af6 423d
00000120: 6b1d 9a3d 51a7 cbbc 3f47 8b3d 453a 763d
00000130: 9ae4 a9bc a1f0 113d 7f9f 8c3b 58f2 c93d
00000140: b23d 15bd e35f 513c 6a25 a73c ea3d 4c3d
00000150: 52fe 37bd 9561 0ebd 8377 273d 0029 32bd
00000160: 39cf ecbc cd26 80bd ee01 0fbd ab84 69bd
00000170: 75a5 04bd abb4 123d 6a18 213d d76c 453d
00000180: 9aa0 39bd dd89 60bd eb0e 073d 3a96 263c
00000190: dd0b 65bc 9399 9bbd ec94 973d 7a9c 8f3b
000001a0: 9451 d43c 7eb2 01bd ac78 063d 9aa0 9a3d
000001b0: ed83 ddbc ccc6 143d 0f1f 0abd 596d 4e3d
000001c0: 1475 1cbd 7892 36bd 14c8 fb3c 7472 54bd
000001d0: 0bbd 8b3d 5d20 23bd cf8a 81bd c215 233c
000001e0: 3a9c 2e3d ada7 903c 5b8f 4abd 3d1f 023d
000001f0: 6e36 17bc 6262 3ebd a30b 17bc 9417 8d3c
00000200: 4a26 8dbb d3d4 dfbc f164 f3ba a5b9 8cbd
00000210: a6f0 2ebd 12ed 4ebd 74d8 93bc fb4f 503d
00000220: b058 823c 65a7 3cbd c68d 45bd 8920 a93d
00000230: 5341 3bbd 8c7a 05bd ebb8 6bbc 7ca9 813c
00000240: 5540 11bc 2306 063d cd33 d1bc 5374 9c3d
00000250: c31b 953d e86d 6f3d f84a 583d 88fd daba
00000260: 5efb 313d aa54 28bd f9ce 81bd 8e87 a9bc
00000270: 2154 8b3d ef22 6c3c 06f5 e73d 9b03 613d
00000280: 33e3 b63d 48d1 963d 510f e43c 1171 eb3a
00000290: 0848 43bd 94ab fabc df44 3d3d 7943 263d
000002a0: ac4b 753d 3756 67bc 1676 8b3d c567 b7bc
000002b0: 2e36 343d 9bda 6c3d a891 6d3d 77c6 343d
000002c0: 4386 413b 33da e43d 37f1 fa3d 63f4 8e3d
000002d0: fe05 5a3d 7a69 79bd 33e1 6abd 7615 09bd
000002e0: 3066 8bbd cf5b 6ebd 2e48 26bd bb71 dabd
000002f0: 9332 7ebc d2ed 1fbd 23bf e13c 3f42 98bd
00000300: 7d32 1dbd e53c 123d 9217 6dbd 4fab 833d
00000310: efc5 073d 9591 9c3d 1c8a d2bc df97 45bd
00000320: bca5 39bd acd0 f0bb b76d 9e3d def5 263d
00000330: aaf3 c1bd 9e38 50bd 83e8 cabd 8ad6 393d
00000340: 21ce 933c c4d7 4ebe 7f3b 53bd 9cb0 fc3c
00000350: fcf0 ba3d 2e17 81ba 3143 f9bd 36dd 4cbb
00000360: 212c e3bb b502 60bc cb10 acbd f53c fabd
00000370: 65e7 d93d ca30 863d 0ed4 50bc 89c1 ebbc
00000380: 5f38 a6bd e4ae 3bbd d9ac 2ebd 98e4 e1bd
00000390: 9349 00be a511 0dbe 1e78 473d 97cd 223d
000003a0: d38e 1dbd ac7c d2bd 2099 69bd de1b aa3d
000003b0: 852e 843b b608 3dbd 3b8a 73bd 4e04 d9bd
000003c0: 9227 d13d 1816 fdbc f9f1 06bd a591 59bd
000003d0: dfea 0dbd 9a75 773d 62b9 9b3b 6253 1c3c
000003e0: 60c3 2fba 7757 9dbd 485b f53b e0e8 693d
000003f0: 8c38 e83d a1f4 a63d 44bc fc39 eaf8 1b3d
-0.05087769 -0.02649002 0.12844956 0.09411796 0.02947792 -0.0051894677 0.15257336 0.051238503
0.013094499 -0.07929566 -0.069605745 0.020997575 -0.04355213 0.03245857 -0.0114630805 -0.07937427
-0.043318234 0.03946387 0.1336946 0.04070967 0.055280756 -0.03763652 -0.033419248 -0.012371147
0.04233511 0.03288453 -0.024635617 0.039225683 -0.10766326 0.0191618 0.011718306 0.03231708
-0.061855134 -0.066094406 0.0037073463 -0.058360655 0.022436345 0.007877086 0.02625614 0.10426769
0.08169124 0.07043008 -0.018735275 0.08498447 -0.003106384 0.030231986 -0.0039271624 -0.04676246
-0.06790652 -0.05243125 -0.034204654 0.001008223 0.013736282 0.06513388 -0.041665304 0.018231522
-0.037592888 0.055680472 -0.02732239 0.07725728 0.004311516 0.05349779 -0.007852567 0.05535952
0.0010935316 -0.0011567634 0.011624368 0.020711282 -0.061061103 -0.05233397 0.02565058 0.04759828
0.07525142 -0.024860056 0.068006985 0.060114164 -0.020738889 0.035629872 0.0042914744 0.098606765
-0.03643579 0.012779209 0.020403583 0.049863733 -0.044920273 -0.03476103 0.04088546 -0.043496132
-0.028907405 -0.06257401 -0.03491395 -0.057011288 -0.032384355 0.03581683 0.039329924 0.0481995
-0.045319177 -0.054818977 0.03297321 0.010167653 -0.013979879 -0.07597651 0.074014515 0.004382667
0.025917806 -0.031664364 0.032829925 0.075501636 -0.027040446 0.0363224 -0.033721026 0.05039725
-0.038197592 -0.044573277 0.030735053 -0.051866964 0.068231665 -0.039825786 -0.06325304 0.009953918
0.042629458 0.017658079 -0.04945312 0.031768072 -0.009229286 -0.046480544 -0.009219083 0.017223157
-0.004307543 -0.027323162 -0.0018569512 -0.068713464 -0.04270997 -0.050519057 -0.018047549 0.050857525
0.01591143 -0.046058077 -0.04823091 0.08258159 -0.045716595 -0.032587573 -0.01438735 0.015827887
-0.008865436 0.032720696 -0.025537396 0.076393746 0.07280686 0.058454424 0.05280587 -0.0016707638
0.043452613 -0.041096367 -0.06338305 -0.02069452 0.06803156 0.014412626 0.113260314 0.05493508
0.089300536 0.07364136 0.027839335 0.0017962774 -0.047676116 -0.030599393 0.04620826 0.04059169
0.05988662 -0.014119676 0.068096325 -0.022388348 0.043996982 0.057825666 0.058000237 0.044134583
0.002952949 0.11174431 0.12253039 0.06980207 0.05322837 -0.060891606 -0.057343673 -0.033467732
-0.068066 -0.058193024 -0.04059618 -0.106662236 -0.0155149875 -0.039045162 0.027556961 -0.074345104
-0.038378228 0.035702605 -0.057883807 0.06429159 0.03314775 0.07644955 -0.025700621 -0.04824054
-0.045324072 -0.0073490944 0.0773577 0.04076182 -0.09470303 -0.050835244 -0.09907629 0.045370616
0.018042626 -0.20199496 -0.05157041 0.030845933 0.09127995 -0.0009848827 -0.12171019 -0.0031259782
-0.006932751 -0.01367252 -0.084016405 -0.12218658 0.10639838 0.065522745 -0.01274587 -0.028778808
-0.08116221 -0.045821086 -0.04264531 -0.11029929 -0.12528066 -0.13776262 0.048698537 0.039746847
-0.038466286 -0.102776855 -0.057030797 0.083060965 0.004033866 -0.046150886 -0.059458 -0.10596524
0.102126256 -0.030894324 -0.032945607 -0.053117413 -0.03464782 0.060414888 0.004752324 0.009541364
-0.00067048334 -0.07682698 0.007487688 0.057106853 0.113389105 0.08152128 0.00048205454 0.03807918

conv2.bias f4 [16]
00000000: ca01 9e3d 4122 2f3d 15da 8fbc ba8e e5bc
00000010: f29f 22bd a0b3 b23c 30e5 19bd 2935 663d
00000020: 5768 893d 309c 913d 2f7d 5e3d e999 1d3c
00000030: 8f28 b73b e8f8 4ebd d384 5ebc 4c6e a53d
0.07715185 0.042757276 -0.017560044 -0.028022159 -0.039703317 0.021814167 -0.037572086 0.05620304
0.06709354 0.071098685 0.054318603 0.009619215 0.0055895518 -0.050530344 -0.013581472 0.08077678

fc1.weight f4 [128, 256]
00000000: f136 efbc 21bd c73c b3d3 e73c da1d 01bd
00000010: 3d81 0b3c 7b95 783d 072d 543d bd46 e0bc
00000020: c065 d63c 91a2 4d3d 7737 8a3c 6f1a 643d
00000030: 130a 913c 8173 7f3d 78ba ea3c fca6 39bd
00000040: b418 93bd fab6 473c d2ca 44bd 64d7 97bc
00000050: ad3f 21bd 448d 61bd f1a9 31bd ea06 0dbd
00000060: 9a14 66bd 02dc 80bd 256b 34bd 6807 f73c
00000070: 6452 a4bc 77dc bf3c 408e 7cbc c423 3b3d
00000080: 6ca8 debc 1c1b 67bd cc24 26bd 8e38 083c
00000090: 532e 873c 6b49 603d 8d56 863d f93a 323d
000000a0: 6676 243d 4c8a b53c 60cc c03c 0a67 3abd
000000b0: 0a71 953c 22f1 f33d c0b1 833a 8e7e 2dbd
000000c0: bba6 883d b5d5 9dba b85e 26bd 3701 4f3d
000000d0: 5bc8 043d 4226 51bd 2da6 fd3c fa09 a83c
000000e0: de78 08bd be6c ccbc 4f0a 39bb f6c6 9d3c
000000f0: 4367 5fbd e6ce 243d 6cc5 d03c 1940 b0bc
00000100: 0039 593d 9b50 3e3c 4c28 72bb 5b83 06bd
00000110: f0d9 8d3c 91c6 7dbd 66df 39bd 7c12 41bd
00000120: 8849 9abc 6785 b9bc 7a02 a13c 60f1 e03b
00000130: 1011 3c3d a030 a93c de06 70bc 9c1c 73bc
00000140: 2782 1b3a b4ee 9bbd b987 b6bd 68f7 623d
00000150: 04ee 453d 4f50 ae3d b2d6 d23c 81bf 41bd
00000160: ae37 2cbd 6cc5 8a3d 04f5 fa3b cd53 513d
00000170: c672 213d 375d a4bc dc8d 43bd 902e 573c
00000180: 2411 9c3c b000 8b3d cc98 873c c4ca 77bd
00000190: 4edb 863d f55a 5fbb a7c5 b73c 3128 07bd
000001a0: 17f0 573d 50ec 5fbb 21da 793c a436 f4bc
000001b0: 0f78 63bd 69e0 d73c c65a 90bc 41d6 ce3c
000001c0: c25f 3f3d 54aa 63bd 4882 d13c 1ea2 65bd
000001d0: ce66 6d3d 5826 43bd 4ae6 ab3d f1b5 203b
000001e0: a11c 693d 0259 87bd b4a9 59ba 6ef4 713d
000001f0: 6355 ba3a d785 9d3d 0798 733d fa2e 3dbd
00000200: f0c2 d2bc b6ce 39bd b39a 143c 5818 4cbd
00000210: 3c95 863c 3b31 33bd 39f0 2fbd d8f6 513d
00000220: c207 3bbd 880a 8abc 6dd9 893d f421 77bd
00000230: 85c9 893c 7ec7 1d3d 39f2 963c 80d7 253d
00000240: fbc6 1c3d 26e6 c13d 32ff 9d3d 68c9 7bbd
00000250: 5525 473d d3ad 203d 8ba1 563d 6961 babc
00000260: 5573 df3c 9968 3b3d d2df 483d 5766 cd3c
00000270: 9df4 f7bc c996 823d ab88 f43b 3806 2fbc
00000280: f0ac 623d 0ce2 903c 65c1 43bd 1122 b2bd
00000290: 5533 3d3d 33f3 5fbd f176 b4bb 9d25 d7bc
000002a0: 0b42 553d 82d9 e63c 0539 c33c 5da9 2cbd
000002b0: 7cf8 433d 26ae 14bd 36d2 943c d467 633d
000002c0: ae1b 233d 5726 78bd 8667 ce3c a220 353d
000002d0: 13de 503c 7a0f b6bc 6fdf 853d 02f9 0abd
000002e0: 1ba2 f93c d2ac e9bb c26b c33c 01ae 10bc
000002f0: 8cc5 68bc 72a8 813d f1de a73d bea1 88bb
00000300: 03cb 443d bde0 3fbd da89 60bd 331b 49bc
00000310: 0d84 943d 02c2 513d 0436 393c 9ac9 0d3d
00000320: 8c3d 2f3d 043b 9d3c 4661 833b 4779 4c3d
00000330: 05b3 ec3b 1c19 12bd 504a 09bc 47ea 223d
00000340: 6fd1 3f3d 1a2c 4e3d 5f80 4f3d b34e b7bd
00000350: 9999 f13c bb59 65bc 1c87 18bc 2e65 1f3c
00000360: 45b1 8a3c 4380 2b3d 68e2 75bd 187d 6abd
00000370: befe 7cbd dd61 37bd 8285 b4bc 6ec7 893d
00000380: 9af6 d93c ece8 35bd 3d87 41bc b5f3 683d
00000390: a5b2 dcbb be39 f33c e086 583d 5419 1abd
000003a0: 90e8 8d3d ea28 27bd 2d9e 0a3d 82d9 26bd
000003b0: 3feb 023d 7daf 88bc 3596 32bd 97b5 163d
000003c0: e989 f53c 5e06 203d 5971 10bd eb1f 66bd
000003d0: 9ecf 6d3d ea9b 43bc 5380 2dbb 2f2d f4bb
000003e0: 7667 37bd e216 a4bc 09ed 5dbd 7905 6a3d
000003f0: 330e 7f3c 3f7e 563d d0bc 643d 09e4 a73a
-0.029201003 0.024382176 0.028299188 -0.03152261 0.0085146995 0.06068943 0.051800754 -0.02737748
0.026171565 0.050203864 0.01687215 0.05568927 0.017705 0.062366012 0.028653368 -0.045325264
-0.07182446 0.012189621 -0.048044987 -0.018535323 -0.039367367 -0.055066362 -0.04337496 -0.034430422
-0.05617199 -0.06291963 -0.044047493 0.030154899 -0.020058818 0.023420556 -0.015414774 0.045688406
-0.02717992 -0.056422338 -0.040562436 0.008314265 0.016501581 0.054757517 0.06559477 0.043513272
0.040151976 0.022160672 0.023534954 -0.045508422 0.018242378 0.11911227 0.001004748 -0.04235702
0.06672426 -0.0012041839 -0.040617675 0.050538268 0.032417636 -0.051061876 0.030963028 0.02051257
-0.033318393 -0.024954196 -0.0028234904 0.019259911 -0.054541837 0.040236376 0.025484763 -0.02151494
0.053032875 0.0116158975 -0.0036950288 -0.032840114 0.017315835 -0.061956946 -0.045379065 -0.04713677
-0.01883389 -0.022646619 0.019654501 0.0068647116 0.04591471 0.020653069 -0.014650075 -0.014838364
0.0005932175 -0.076138884 -0.08912606 0.055411726 0.048322693 0.085114114 0.02573714 -0.047301773
-0.042045288 0.067759365 0.0076586027 0.05110531 0.039416097 -0.02006398 -0.04774271 0.01313366
0.019051142 0.067872405 0.016552351 -0.060496107 0.06584798 -0.0034081314 0.022433115 -0.032997314
0.052719202 -0.0034167953 0.01524976 -0.02981121 -0.05553442 0.026352124 -0.01762141 0.025248649
0.04672218 -0.05558236 0.025574818 -0.05606281 0.05795937 -0.04764399 0.083935335 0.0024522508
0.05691207 -0.06608774 -0.0008303181 0.059070997 0.0014216121 0.076915435 0.059471156 -0.04618738
-0.025727719 -0.04536315 0.009070086 -0.049827904 0.016428582 -0.04374812 -0.042953704 0.0512608
-0.045661695 -0.016850725 0.06730924 -0.060335115 0.016819725 0.03852033 0.018426048 0.04048872
0.0382757 0.094677255 0.0771469 -0.061471373 0.048619587 0.03922827 0.052400153 -0.022751527
0.027276674 0.04575405 0.049041577 0.025073214 -0.030268008 0.06376416 0.007462581 -0.010682635
0.055340707 0.017685913 -0.047791857 -0.08697904 0.046191532 -0.054675292 -0.005507343 -0.026263053
0.052064937 0.028179888 0.0238309 -0.042153705 0.047844395 -0.036298893 0.018166643 0.05551894
0.03982132 -0.06058344 0.025195848 0.044220574 0.012748259 -0.022224177 0.06536757 -0.03392888
0.030472806 -0.0071311975 0.023855094 -0.008830548 -0.014207255 0.063309565 0.081968196 -0.004169672
0.04804517 -0.046845187 -0.054818965 -0.012274551 0.07251749 0.05121041 0.011304382 0.03461609
0.042783305 0.01919318 0.0040093986 0.049920347 0.007223489 -0.035668477 -0.008379534 0.039774206
0.04683059 0.050335027 0.050659534 -0.089505576 0.029492186 -0.013998444 -0.009309556 0.009728713
0.016930232 0.041870367 -0.06003037 -0.057248205 -0.06176638 -0.044771064 -0.022036318 0.06727491
0.026606847 -0.044411585 -0.0118120285 0.056873042 -0.0067351633 0.02969062 0.052863 -0.03762181
0.069291234 -0.040810503 0.033842254 -0.040734775 0.03196263 -0.016685242 -0.04360028 0.03679427
0.029972987 0.039068572 -0.035264347 -0.056182783 0.058059327 -0.011939028 -0.0026474192 -0.0074516754
-0.044776402 -0.020030443 -0.054181132 0.057134125 0.01556735 0.05236649 0.055844128 0.0012809049

fc1.bias f4 [128]
00000000: a248 1c3d a34d 87bc 1a15 acbc 52bd bc3c
00000010: ea72 96bb 70f5 1f3d 671a bd3c 8e00 023d
00000020: 8773 35bc 4705 84ba d4ea 433d 1609 3ebd
00000030: aca9 183d 6bbb c8bc f585 06bd f12b 263d
00000040: db8a b93b 272a 863a e3eb 49bd f3f1 973d
00000050: fbaf 78bd 0474 1ebd 9ca8 20bd de6f 2d3d
00000060: 7303 b23c f43d 39bd 1bd0 67bd fdc5 dc3c
00000070: 0b12 453d ed82 413d a3de 4b3d 7f44 7a3d
00000080: ff64 8b3d 755e 6a3d ec77 f5bc 43bf 21bd
00000090: 46a0 43bd 9292 493d 6e7a 273d 59c6 00bd
000000a0: 9653 a13c a5f1 c93c 8855 353d 6c5d eb3c
000000b0: 0616 42bd d58d 1c3d d287 4cbc 0a61 7c3d
000000c0: 2612 e6bc 41a8 1c3d 0214 2ebd e7f2 5ebc
000000d0: c656 02bd 6347 0c3d 11fe 103d 31b9 1a3c
000000e0: e298 9d3c 28c6 76bd 9ddd fb3b 7425 dd3c
000000f0: 89c9 da3c db86 c5bc 5821 b43a d596 2fbd
00000100: 58fa 72bd 1905 333d cb86 983c 8895 bcbb
00000110: e03b f73c ff2f 03bc e446 1fbd 0072 1dbc
00000120: ef25 4bbd 0fac 9fbc 1352 383d 72bd 9a3c
00000130: 85af 5f3d cbef 663d b3f2 04bd 862e 92bc
00000140: ac51 d6bc 71cc 313d 27af 9fbc 5b77 223c
00000150: f037 fd3c 67a7 693c 45ec 94bc 92d1 4c3d
00000160: abb4 4f3c 97a5 07bd e8d8 9bbc 0a58 313d
00000170: e1a3 b0bc e3d8 91bc 30ac a9bc fa95 ae3c
00000180: 1f90 56bd 9d2f 31bd be12 77bd 0b1d 38bb
00000190: 90de b0bc dae1 0a3c 1f6d e9bc def0 443d
000001a0: 72f7 a3bb 4ad9 8a3c 2f1a 63bd 4e94 ca3c
000001b0: 7834 c83c ae5c 343d c2a9 2b3d 99dd 9cbb
000001c0: 1e00 e8bb 6658 243d 9ec8 53bd bcb2 c23c
000001d0: 114c 49bd 069d 43bd d21b 56bd e135 fb3c
000001e0: 43ad d73b cb18 773a 3c93 1d3c 746f a8bc
000001f0: 2c5b 573c 0858 a2b9 2a3d 4ebd 5d9b 36bd
0.038155206 -0.016516512 -0.021006156 0.023039494 -0.0045913355 0.039052427 0.023083879 0.03173881
-0.011074907 -0.0010072374 0.04783137 -0.046395384 0.037271187 -0.02450343 -0.032842595 0.04056925
0.005662305 0.0010235951 -0.049297225 0.07419195 -0.060714703 -0.03868486 -0.0392233 0.042343013
0.02173016 -0.0452251 -0.05659495 0.026949877 0.04811291 0.047244 0.04977287 0.06110048
0.06806373 0.057218987 -0.02996441 -0.039489042 -0.04776027 0.049212046 0.040888242 -0.03143916
0.019693177 0.024651358 0.044271022 0.02873107 -0.047384284 0.0382212 -0.012483554 0.06161598
-0.028084826 0.038246397 -0.04249955 -0.013607717 -0.031821035 0.034247767 0.035398547 0.009443567
0.01923794 -0.06024757 0.0076863305 0.026995398 0.026707428 -0.024112156 0.0013742847 -0.042868454
-0.059320778 0.043706033 0.018618962 -0.00575513 0.030179918 -0.008007049 -0.038885966 -0.009609699
-0.049596723 -0.019491224 0.045000147 0.018889163 0.054610748 0.05638103 -0.03245802 -0.01784445
-0.026161991 0.04340786 -0.019492699 0.009916152 0.030910462 0.014261103 -0.018179068 0.05000455
0.012677352 -0.033116903 -0.019024327 0.04329685 -0.021562519 -0.017803615 -0.020711988 0.021311749
-0.05238354 -0.0432583 -0.06032061 -0.0028093483 -0.021590501 0.008476699 -0.028494416 0.04808127
-0.005003863 0.016949315 -0.055444892 0.02472892 0.024439082 0.0440337 0.04190994 -0.0047871587
-0.007080092 0.040123366 -0.051704995 0.023766868 -0.04914481 -0.04775717 -0.052272625 0.03066534
0.0065819337 0.00094259967 0.009617623 -0.020560957 0.013144296 -0.00030964636 -0.0503513 -0.04458176

fc2.weight f4 [64, 128]
00000000: cf91 bf3c 6e18 96bd 3a7e 6a3c 4f50 a63d
00000010: 049b a43d 063c 563a 90ca 9bbc 50ee b93d
00000020: 25fc 3d3d 4430 f83d 98a2 9a3d 4275 cb3d
00000030: 5e4a 9c3d 098a 9e3d 3f42 55bd c3f1 bebc
00000040: 9b1e 3f3d d5f4 d53c a3f2 79bd 50a9 1abd
00000050: 5677 033d c5da b33d 71fe 50bc c1b2 a53d
00000060: bed6 69bd 4116 58bc 3072 013d a96b 573d
00000070: 554a 893d a3a4 b3bd a8ca b13c 8672 cc3d
00000080: 8c30 8abd 5473 53bd b00d 313d 9887 03bd
00000090: c665 163d 8d04 413d ed01 803d 3204 10bd
000000a0: 8bd5 073d 091b 7d3d f658 1cba 066c c63c
000000b0: fc87 c3bd faff 4dbc a3c0 c4bc d800 afbd
000000c0: fa3d 72bd 91e2 023d b1f5 21bb b395 c2bd
000000d0: 9c78 923d e905 c8bd 8691 bebc b933 4f3d
000000e0: f25f edbd 8307 3f3d 1d75 ba3d 8792 2cbc
000000f0: 42b7 92bd 569c 313d e00e 90bd b6d3 c6bd
00000100: 6596 f03c 4200 d13d 0042 333b 7aec 5c3d
00000110: e7ea 57bc 0c03 96bd 2907 06bd 6e61 86bc
00000120: 2cc2 47bd 526b bcbd 9b00 dc3d 7272 99bc
00000130: 33d8 bc3d 57cc 43bc bc1c ae3d a8f0 b23c
00000140: e8bb 40bd 9e4b 94bc 0726 b03d 32ac ab3d
00000150: f78e 223d 34d4 0a3e a3c3 863d e334 b9bd
00000160: adfb db3d 2001 dc3d f175 07bd ebaf f73d
00000170: fdd7 c53c 1fb8 103e 0b01 043c 8aef 443c
00000180: 64ae 7f3d 9786 eb3d 39cf ed3c 6639 963c
00000190: 84bc 71bd d610 043b 198c 18bd d432 92bd
000001a0: 751d e6bc 32ec 56bd 3928 a33d edb1 0f3d
000001b0: 312a 783d 932b 9fbd d3b8 d73c 00af a3bd
000001c0: fa52 cfbc 3261 983c 77ac 57bd 4eee 38bc
000001d0: 91e4 b0bb c8f0 9f3d 67b5 cbbd 838c 143c
000001e0: f213 85bd a22c 1f3c 7b4f a43c b4c6 a0bd
000001f0: 279f f03d 3bbd 163d feea b2bc a01d 2c3c
00000200: 6ac4 293d 2fca e3bb 225b b2bd a044 00ba
00000210: dbd7 bb3a 1c63 e53c 968f 7bbd 4507 f3bb
00000220: a027 ce3c d90d 373c f9ac a13d 79d2 263c
00000230: 35e5 083d 2275 86bd 62b9 573d ef95 a3bc
00000240: 86d0 a4bd 7ab5 b5bd 9a08 553d 2c57 02bd
00000250: f79e 40bc dfc2 88bd 8185 92bd 1e0b a13d
00000260: 9112 96bd 50ee 5fbd 92c7 2abd 70c8 cd3c
00000270: 1bcf 993d 947f 5f3d b709 99bd 76e2 0f3d
00000280: 098e e9bc d12e 443d 6d71 ae3d d1e7 b0bd
00000290: 4d6a 74bb 7e34 443c dd75 e5bc 92cc 92bc
000002a0: 1e3e a83d e29a ccbc d2be dfba b844 923d
000002b0: 0468 56bc db0d a9bd 290b b3bd 02f0 d2bc
000002c0: 73aa 9abb 45ef ae3c 7463 4cbd e332 513d
000002d0: cc49 4abd 8277 453d e6f0 b5bc a148 3cbd
000002e0: 1337 8d3c f36b 9f3d b3a0 a43d 5ed9 35bd
000002f0: 9d12 9b3d e660 b3bd 76a1 9c3d 33aa b2bd
00000300: 7ef7 243d 75f8 95bd e241 5fbc 0809 b33d
00000310: e414 9c3d 797d 39bd 8c3c 8fbd 249f f03c
00000320: 74f4 15bd 03e0 333d 5bc8 cc3c f9aa 283c
00000330: 6da0 b23d 7c23 94bc 5cf5 9fbd 22e8 01bd
00000340: 5edc 88bd f89a e339 ee18 e5bc 4c40 953d
00000350: 40eb 0ebd 5ea8 693d e3d1 83bd 4585 063d
00000360: ef3f f2bc 3cbc b0bd dee2 adbd 0264 6bbc
00000370: bd0a 543d ce45 0ebd c1c1 993b 1dd7 8e3d
00000380: f4e0 7ebd 456f 9ebd 417a b1bd 6a52 49bd
00000390: 121e a7bd b55c 2ebd a683 aebd 7a37 3f3d
000003a0: 87bb acbb 05ed 96bd 573b 71bd da86 303d
000003b0: 5bae 18bd e218 863d 9d07 ebbc d8f0 c0bc
000003c0: 1a0a 673c 008f c03c c596 613d a579 5bbd
000003d0: 2939 d4bc 5b17 293c 653c 823d 24c4 1b3d
000003e0: 7001 00bd 41a3 213d 43d9 333d de6a 383d
000003f0: edcc 8e3c 8fb5 373d ac3a 923b 6f38 883a
0.023384957 -0.07328878 0.014312321 0.081207864 0.080373794 0.00081723963 -0.019017488 0.090786576
0.046383042 0.12118581 0.075505435 0.099344745 0.07631372 0.07741172 -0.05206513 -0.02330864
0.046660047 0.026117722 -0.061022412 -0.037759125 0.03209623 0.08781961 -0.012755976 0.08090735
-0.05708956 -0.0131888995 0.03160304 0.052592907 0.06703631 -0.08771636 0.02170308 0.09982781
-0.06747541 -0.051623657 0.043225944 -0.032111734 0.036718152 0.04712348 0.06250367 -0.03516025
0.033162635 0.06179336 -0.0005964184 0.024221431 -0.09547421 -0.012573237 -0.024017638 -0.08545083
-0.059141137 0.03195435 -0.0024713094 -0.09501209 0.07151911 -0.09766752 -0.02326275 0.050586436
-0.11590566 0.046638023 0.09104369 -0.010532982 -0.0716386 0.043361984 -0.07034087 -0.097083494
0.029368589 0.10205127 0.0027352571 0.05393646 -0.013178564 -0.073248 -0.032721672 -0.01640388
-0.04876916 -0.09200157 0.10742303 -0.01873133 0.09220924 -0.011950574 0.085015744 0.02184327
-0.0470542 -0.018102463 0.08601003 0.08382453 0.039687123 0.13557512 0.065802835 -0.090432905
0.10741363 0.10742402 -0.033071462 0.120941006 0.024150843 0.14132737 0.008056889 0.012020001
0.06242217 0.1150028 0.029029476 0.018337917 -0.059017673 0.0020151637 -0.037242983 -0.07138601
-0.028090218 -0.052471347 0.07966656 0.035081793 0.06058711 -0.07771983 0.026333248 -0.07992363
-0.025308121 0.018601034 -0.05265471 -0.011287285 -0.005398341 0.07809597 -0.09946709 0.009066704
-0.06497945 0.009715231 0.02005743 -0.078503996 0.11749106 0.036801558 -0.021840569 0.01050511
0.04144708 -0.0069515924 -0.087087885 -0.00048930384 0.0014331298 0.02800136 -0.06141623 -0.007416638
0.025165379 0.011172735 0.0789432 0.0101820165 0.033421714 -0.0656531 0.05266703 -0.019968955
-0.08047585 -0.088725045 0.052010156 -0.031821415 -0.01175665 -0.06677794 -0.0715437 0.078634486
-0.0732776 -0.054670632 -0.04169423 0.02511999 0.07510205 0.054565027 -0.07472556 0.03512808
-0.02851011 0.04789621 0.08517728 -0.086379655 -0.0037294806 0.011975406 -0.028010303 -0.017919812
0.08214973 -0.024976198 -0.0017070419 0.07142013 -0.013086323 -0.08254596 -0.08742363 -0.02574921
-0.004720026 0.021354327 -0.049899533 0.05107392 -0.049386784 0.048209675 -0.022209596 -0.0459677
0.017238175 0.077842616 0.080384634 -0.04439675 0.075719096 -0.08758716 0.07647984 -0.08723869
0.04027509 -0.0732278 -0.0136265475 0.08741957 0.07621172 -0.045285676 -0.0699397 0.02937276
-0.03661008 0.043914806 0.02499788 0.010294669 0.08722005 -0.018083327 -0.078104705 -0.03171552
-0.06682657 0.00043412275 -0.027965989 0.07287654 -0.03489232 0.057045333 -0.06436517 0.03284194
-0.029571502 -0.08629653 -0.08490537 -0.014367105 0.051768053 -0.03473454 0.0046922867 0.06974623
-0.06222625 -0.07736067 -0.08665896 -0.04915086 -0.08160032 -0.04256888 -0.08521204 0.046683766
-0.0052713784 -0.07369427 -0.05889448 0.043097354 -0.037275653 0.06547715 -0.028690154 -0.023552343
0.0141015295 0.023505688 0.055075426 -0.053582806 -0.025906162 0.01032051 0.063591756 0.03802885
-0.03125137 0.03946233 0.04390837 0.04502379 0.0174317 0.044850882 0.0044625606 0.0010392795

fc2.bias f4 [64]
00000000: efdd 6d3d d5b9 b3bd bb06 b73d 811c 1bbd
00000010: 797f 743d ac54 483d 2ec1 4abd c22f f0bc
00000020: 5f95 a63d 49fa 4abd e9b2 633c dfcc a9bd
00000030: 3b88 94bd 4ab3 98bd eb55 3fbc 42a4 67bc
00000040: c0d7 13bd 9c43 a33d 0feb e93c 455f 173d
00000050: b497 30bd 06ce 78bd 3e22 b53d 8631 0a3d
00000060: dbc4 54bd 8f50 9d3d 958b b6bc 517f aebd
00000070: 5115 b43d ba81 97bd d27d 79bc bad2 1bbd
00000080: c154 1abd 5ba7 7abd a220 9d3d b9ad 483d
00000090: 1122 91bd e4f1 88bd a46b ab3d 78d7 2d3c
000000a0: a96b 6ebd 6512 bc3c b17d fd3d ec63 cc3d
000000b0: b134 993d 3564 f53c 8c5e 2bbd 3956 8fbd
000000c0: 331c e7bc 4ea5 3dbb 24af a6bd dd8b 99bc
000000d0: 4145 133b de38 f0bc caca f7bb 5c65 473b
000000e0: bc72 f83c 165e 3bbd bfcb b43d 4db1 0b3e
000000f0: fb49 c13a 54dc adbd 127f aebd a499 91bd
0.05807298 -0.08775679 0.089368306 -0.03786898 0.05969188 0.048908874 -0.049500637 -0.029319648
0.08133959 -0.049555097 0.013897636 -0.08291029 -0.072525464 -0.07456072 -0.011678199 -0.014138283
-0.036094427 0.0797188 0.028554467 0.03695609 -0.043113425 -0.060743354 0.08844422 0.033738635
-0.05194555 0.07681381 -0.022283355 -0.085203774 0.08793128 -0.0739779 -0.015227752 -0.03804276
-0.037678484 -0.06119476 0.0767224 0.0489938 -0.07086576 -0.06686762 0.0837014 0.010610454
-0.05820814 0.02295799 0.12377489 0.09979996 0.07480753 0.029955009 -0.041838214 -0.069988675
-0.028211689 -0.002893764 -0.08138874 -0.01874345 0.0022471698 -0.029323991 -0.007562016 0.0030425405
0.030328147 -0.045744024 0.08827924 0.13641854 0.0014746779 -0.0848929 -0.085203305 -0.07109383

fc3.weight f4 [10, 64]
00000000: 3757 693d 7664 1ebd 6cac cd3d 43d0 053e
00000010: aa3b debd e328 e0bd 487a 76bd f686 03bb
00000020: 0b4b 533e 837d 113c 3ae9 7f3d 6a40 fc3c
00000030: cc6e 8bbd 94f4 e3bc c737 e03d c049 8d3d
00000040: d7e0 b03d 7897 533e fc19 103e bd47 8bbd
00000050: 4714 0d3c 12c1 d43d a38d a1be ae5e 393d
00000060: 6851 63bc 8a26 123e 7047 34bd 2ea1 183d
00000070: d23d 09be 3dc4 533b 4e46 203e 6b84 a1bd
00000080: b586 573e 414a f43d 9598 14be 514b b33d
00000090: 38c0 2c3d 16a4 aebb 41dc 08bd 3e9c 3f3e
000000a0: f686 4d3d fac1 a0bd 2a1d 8cbe e80a cdbc
000000b0: 92d6 82be 17ec e93d 6dc3 1a3e ffdd 41bc
000000c0: 4e35 9ebd 8472 893c ccc9 a23d 35fb 98bd
000000d0: 0ce9 83be c5c0 333d dcec fc3c 68ac 2cbe
000000e0: a995 83bd c553 233e e836 48bd 7494 1e3e
000000f0: 7950 b4bb 5064 e8bd 20f8 6f3b 7de6 0cbe
00000100: 714e 1bbe 6050 033c 90e4 8bbe 456e 9cbd
00000110: 0b06 7cbd b197 84be e741 b6bb a44c 08be
00000120: 7ee1 2d3d dee0 cdbd 58a8 e53d 86aa 203e
00000130: ed61 1fbe f1fc 7dbd d6d9 bf3d d0ff 92bc
00000140: d0a9 8fbd 6992 1fbe 30ec e63d 2a2a 603b
00000150: d703 d43c cf44 92bd 87a7 07be 9f34 36be
00000160: 8c00 c53d 8707 6f3d e20b f03d 4c1c fb3c
00000170: dff8 95bb 0f05 063e c2ac 56bd cd3f 7d3d
00000180: 43da afbc 040e 7a3d 9274 e63d 068f b4bd
00000190: 2c96 a13d 1fe2 21bd 7886 37bd d364 7a3e
000001a0: c039 f5bd 97d7 093d 306a 993e 3787 7bbe
000001b0: bcae a63d 548c 503d 389e c93d 23d2 c6bd
000001c0: 10ab a4bd 0410 753d ed2a 98bd 5ec1 273e
000001d0: 5c28 563e 46d9 4fbe 2d8c 053e d812 24bd
000001e0: 1cca 843c f5c8 bbbe 0e5d 433e 00e2 943e
000001f0: f3f5 abbd 1953 e53b 9a53 aa3d aff6 14bd
00000200: 85ac 27be f9bb b93d d2f0 cfbc bdb6 e73d
00000210: 4541 593d 4b27 af3c 2863 8ebd 0c3e 923e
00000220: af70 52be 96c2 e2bd a721 85bd 3791 d3bd
00000230: 0615 113c 712a 873d 78fd d8bd 9bdd 6d3d
00000240: 99e0 903d ab4f 27bc 92ef 13be 3030 753e
00000250: b904 73bd 0344 b7bd dd0c 1cbe 1457 efbd
00000260: 17fb ca3d 6e4c 81be 809c 16bb 0e03 8abd
00000270: 8e89 f1bd a1a5 bbbc d683 ffbc 6313 7dbc
00000280: f69c e73d 7191 ce3d 9d32 40be 6cf8 d1bd
00000290: f662 95bd 56bb a7bd 921b a03e 82ad 40bd
000002a0: 0327 67bd cb1f dc3d 0529 d8bd 58c3 10be
000002b0: 4078 2a3c 55c9 37bd bc3a 0a3e ba50 fd3c
000002c0: 24d6 dd3d e5f6 d23c 4665 89bd 5c72 c53d
000002d0: cf5b d63d d9e2 363e 391e a8bd 288c 1e3e
000002e0: 32f9 98bd f163 643d 5c4a 503c b081 913e
000002f0: f296 83bd de7f 18be b790 b5bd bf88 233e
00000300: 3957 49be de1b 783d 1e74 2bbe a270 203d
00000310: da39 d8bd 2156 09be 4ad0 b13d f7a5 0d3c
00000320: 293d 35be b0e2 e5bd a815 d43d 974c 5c3c
00000330: fe65 533e cf53 b3bd fefe 783d ddcf 25bd
00000340: 2bc0 b2bd 94d6 1b3e 43ea 113d 4e1d e33c
00000350: afa8 dfbd 05e4 063e da41 82bd a5b5 3c3e
00000360: 52de ba3d 38d7 3d3d 86be e33d 7241 503d
00000370: c192 8c3e ceee c23c a5af e53d 4790 b2bc
00000380: f6e9 423e 0d88 b13d 4724 933e bb25 be3b
00000390: 91d5 593c f0eb 653e 2d3a 033d 157a 11be
000003a0: b725 f33d 3a84 aaba 67df 10be 7b70 36be
000003b0: ba45 603e 0c02 24be d0f0 80be d69c f9bd
000003c0: 1051 4f3d 0826 67bd f788 933d 4e1f 5e3e
000003d0: f21b 123d f155 383c f2e7 4bbe bb23 7bbd
000003e0: e923 08be 903a d83d fc46 a6bc f9c5 eebd
000003f0: 3035 85bd 7b8b b7bd d080 ee3c c0e7 19bd
0.05696794 -0.038670026 0.100426525 0.13067727 -0.10851224 -0.109452985 -0.06017521 -0.0020069457
0.20634095 0.008880022 0.06247828 0.030792434 -0.06808242 -0.027826585 0.10948139 0.06898832
0.08636635 0.2066325 0.14072412 -0.06800792 0.0086107915 0.10388388 -0.31553373 0.04525631
-0.013874389 0.14272514 -0.04401344 0.037263088 -0.13402489 0.0032313012 0.15651819 -0.07886585
0.2104748 0.11928225 -0.1451133 0.087546 0.0421755 -0.005329619 -0.033413175 0.18711945
0.050177537 -0.07849498 -0.27366 -0.025029615 -0.2555433 0.11421984 0.15113612 -0.011832713
-0.07725011 0.016778238 0.07948646 -0.07469789 -0.25763738 0.04388501 0.030874662 -0.16862643
-0.0642503 0.15949924 -0.048880488 0.15486318 -0.005502757 -0.11347258 0.00366164 -0.137598
-0.15166642 0.008014768 -0.27322817 -0.0763822 -0.0615292 -0.2589698 -0.0055620554 -0.13310486
0.042451374 -0.10052656 0.1121375 0.1569005 -0.155647 -0.0620088 0.09367721 -0.017944247
-0.07014811 -0.15583195 0.11275518 0.003420482 0.025880737 -0.071420304 -0.132475 -0.17793511
0.09619245 0.058356788 0.117210165 0.030653141 -0.004576787 0.13087867 -0.05241085 0.061828423
-0.02146638 0.061048523 0.11252703 -0.08816342 0.07889971 -0.039522287 -0.044805974 0.24452524
-0.119739056 0.033652868 0.29963827 -0.24563299 0.08138797 0.050915077 0.09844631 -0.09708049
-0.0804044 0.059829727 -0.074300624 0.16382357 0.20913833 -0.20297727 0.13041754 -0.040057033
0.016209655 -0.36676756 0.19078466 0.29078674 -0.083965205 0.0069984314 0.08316727 -0.03636807
-0.16374405 0.09069056 -0.025383387 0.113141514 0.05304076 0.021381041 -0.06952506 0.28562963
-0.20550798 -0.110722706 -0.06500559 -0.10330432 0.00885511 0.06599892 -0.1059522 0.058072668
0.070740886 -0.010211865 -0.14446858 0.23944163 -0.059330676 -0.08948519 -0.15239282 -0.11686531
0.09911173 -0.25253624 -0.0022981465 -0.06738864 -0.117938146 -0.022906126 -0.031190794 -0.015446517
0.11309235 0.100863345 -0.18769307 -0.10252461 -0.07294266 -0.08190028 0.31271034 -0.04704047
-0.05643369 0.107482515 -0.10554699 -0.14137018 0.010404646 -0.04486974 0.13498968 0.030922282
0.1083186 0.025752494 -0.067087695 0.09640953 0.1046673 0.17859973 -0.082088895 0.15483153
-0.07469405 0.055759374 0.012713041 0.28419256 -0.06425275 -0.14892527 -0.08865493 0.15970133
-0.19662179 0.06057345 -0.16743514 0.039169915 -0.10557909 -0.13411762 0.08682306 0.008645526
-0.17699112 -0.11224878 0.10355693 0.013445995 0.20644376 -0.087562196 0.060790055 -0.040481437
-0.087280594 0.15218574 0.0356238 0.027723935 -0.10920846 0.1317292 -0.063602164 0.18428667
0.091244355 0.046347827 0.11120324 0.050843664 0.27455714 0.023795512 0.11215142 -0.021797312
0.19034562 0.08668528 0.28738615 0.0058028377 0.013295547 0.22453284 0.032037903 -0.14206727
0.11872428 -0.0013009377 -0.14147721 -0.17816345 0.21901599 -0.16016406 -0.25183725 -0.12188117
0.050614417 -0.056432754 0.07203858 0.2169163 0.035671182 0.011250959 -0.19912699 -0.061313372
-0.13294949 0.10558045 -0.02029752 -0.11658854 -0.06504285 -0.08962151 0.029114157 -0.03757453

fc3.bias f4 [10]
00000000: 2033 02be ad31 123e 103f da3d 3ba9 35bc
00000010: b88d 063d e037 0d3d 0129 a5bd d4ad 553d
00000020: 369c 013d 8fc1 9bbd
-0.12714815 0.14276762 0.106565595 -0.011087711 0.032849997 0.034477115 -0.080644615 0.05216773
0.031643115 -0.07605278
